pretrained_models/nn.pth (torch, 34390 bytes, 6 tensors)

weight f4 [50, 141]
000000 43 a0 8a 3d 50 e1 a5 be 18 1c e3 bd 9a 36 63 3d
       0.06768849 -0.32398462 -0.11089343 0.055471994
000010 e7 53 14 3f 03 67 1c 3d 32 f6 d2 3d ad 15 3b bf
       0.57940525 0.038184177 0.10300864 -0.7307995
000020 97 02 1c be 72 7c 1c 3d 7f 21 96 be 49 47 36 3f
       -0.15235363 0.038204618 -0.2932243 0.7120252
000030 05 88 89 3f 38 e1 85 3d d9 af c6 3e aa b2 31 bd
       1.0744635 0.06537098 0.38806036 -0.043383278
000040 4f 1a b7 3e 92 7f 81 bd 60 77 a7 3d b6 6e 03 3f
       0.3576226 -0.0632316 0.08177066 0.51340806
000050 52 13 9a 3e 6f 8d 19 3d 91 9b 42 3f a4 8e 73 3f
       0.30092865 0.037488397 0.76018625 0.9513953
000060 e9 87 3c be 00 2a 02 3e 36 fc 2f 3f a5 45 37 be
       -0.1841122 0.12711334 0.6874422 -0.17897661
000070 8d 3a 00 bf 03 b9 6e 3e af 89 34 3e ea 54 46 be
       -0.5008934 0.23312764 0.17630647 -0.1936833
000080 a9 1e 8a 3f 0e 53 28 3f 80 be fc 3d 47 78 bc 3d
       1.0790607 0.6575173 0.123410225 0.092026286
000090 11 71 16 3e 1b e2 7d be 95 34 6f be 3a 3c 2e bc
       0.14691569 -0.24793284 -0.23359902 -0.010634476
0000a0 db df d1 bd 8f b0 ff 3c d0 c7 28 3e 01 a2 99 be
       -0.10247775 0.03121212 0.16482472 -0.30006412
0000b0 a1 a3 39 3e 7d 26 73 3e 08 31 21 3e b4 5c 92 3e
       0.18128826 0.23745151 0.1574136 0.28586352
0000c0 f0 01 c2 3d e3 c6 69 3e 20 d2 e2 bc dc af 20 3e
       0.09473026 0.22829776 -0.027688086 0.15692085
0000d0 f4 c8 73 be ea 25 82 bf d0 30 fb be 39 6e 5e bd
       -0.23807126 -1.016782 -0.49060678 -0.054304335
0000e0 6b 6d 02 bd 7f 63 5d 3e 34 37 f1 be ff a2 45 3d
       -0.03184263 0.21619986 -0.4711243 0.04825115
0000f0 44 9c 69 3e e1 4c 3b 3e c8 4c 5c be 12 9b 09 bf
       0.22813517 0.18291046 -0.21513665 -0.53752244
000100 13 3c f1 3d 7d b5 8f 3e 9e a8 8c 3d 47 58 09 3d
       0.117790364 0.28068152 0.06868099 0.033531453
000110 43 9a 3b be 83 0c 5b be a3 b0 f6 3e 64 31 14 be
       -0.18320565 -0.21391492 0.48181638 -0.14471966
000120 1e 20 f8 be fb a4 3d 3d fb 01 49 3b 75 d7 f4 bc
       -0.48462003 0.046299916 0.0030671346 -0.029887894
000130 b8 f1 77 3e 98 d8 64 3d 80 cd 8b 3d 75 c7 20 3f
       0.24213302 0.055870622 0.068263054 0.6280435
000140 ff e5 5e bf ee 81 04 3c a4 dd 44 3d e9 d7 e2 3d
       -0.87069696 0.008087618 0.048062935 0.11076338
000150 f8 3f 7c 3e ca d7 b0 3e 35 4b 2d 3e 03 f0 1c 3f
       0.24633777 0.34539634 0.1692322 0.6130373
000160 e8 bb a9 3d ea 53 92 3e 73 28 52 3f 74 9a 36 3e
       0.082877934 0.28579646 0.8209297 0.17832357
000170 35 cf a3 3e b6 53 e0 3c 68 c3 50 3d 1c d8 c1 3d
       0.31994024 0.027383666 0.050967604 0.09465048
000180 17 11 8b 3e 25 1a 04 bd 77 0f 23 3e d7 c3 27 bf
       0.27161476 -0.032251496 0.15923868 -0.655332
000190 41 71 bd 3e 1d 93 07 3e 26 7d 02 bf 29 de 54 bf
       0.37000468 0.13239713 -0.5097221 -0.8315149
0001a0 e4 fc 8c be b1 4b 98 be bf 1a 98 3d 15 e9 43 3f
       -0.2753669 -0.29745248 0.074269764 0.7652753
0001b0 8a ed 28 be 28 ac 41 3d ca c2 2d 3e c9 0f 15 be
       -0.16496864 0.04728332 0.16968837 -0.14556803
0001c0 d7 b7 09 be d4 94 8c ba 9a 93 ce 3d df 71 e2 bd
       -0.13449036 -0.0010725507 0.100867465 -0.110568754
0001d0 a1 b7 88 3f be 6d ca be 52 c9 9a bd 4a d8 9b be
       1.0681039 -0.39536852 -0.0755793 -0.30438453
0001e0 5e 33 3d be 6a 18 16 3e 25 b8 0f be 6e bd 58 3f
       -0.18476626 0.1465775 -0.1403509 0.84664047
0001f0 10 75 29 3e f0 cf b2 3d 9a 7b 35 bf 88 cc e4 3c
       0.16548562 0.08731067 -0.70891726 0.02792956
000200 c1 c3 88 bd 16 93 4a 3e 1d 20 e8 bd e7 a7 06 bf
       -0.06677962 0.19782671 -0.1133425 -0.5259995
000210 ed 39 39 bf 44 f9 82 bc 86 b7 cb 3c a5 29 08 3d
       -0.7235401 -0.015988 0.024867784 0.03324284
000220 68 e0 a2 bd 71 bc 5c be 2f 03 64 be 58 e6 7d 3a
       -0.07952958 -0.2155626 -0.2226684 0.0009685508
000230 9f 22 1c bd 29 bb 32 3e 64 b2 53 be f1 d1 31 3e
       -0.038118955 0.17454208 -0.2067352 0.17365243
000240 09 e3 2d 3d 00 c5 cc bd f5 ca e5 bd a7 dc 35 3e
       0.042452846 -0.09998512 -0.112203516 0.17759953
000250 90 b5 18 bf 62 10 b7 3e 29 5a c9 be ff a2 1f bd
       -0.5965204 0.35754687 -0.393266 -0.038973805
000260 53 3d b8 3d 5d 48 1b 3f 37 10 e0 3d c7 09 95 be
       0.08996072 0.6065729 0.10940593 -0.29109022
000270 8b 7f 3d 3e 8e 55 5d 3e 01 0f c1 be 1d 0c 9c 3d
       0.18505685 0.21614668 -0.3770676 0.07619498
000280 6e 81 e2 3e 93 b1 0c 3f 18 7e 61 bd 02 45 1a 3f
       0.44239372 0.54958457 -0.055051893 0.6026155
000290 6a 8a 98 3e 14 ad 03 be 7a 81 3e 3e e8 4d 5e 3e
       0.29793102 -0.12858993 0.18604079 0.21709406
0002a0 df 96 ac bd ee a8 51 3c 5c 06 ac 3b fa 86 ce bd
       -0.08427214 0.012796624 0.0052497815 -0.100843385
0002b0 fd 7c 68 3e a5 8b a1 3f 0e ed 4e bd bf 1e 46 bd
       0.22703929 1.2620741 -0.05051904 -0.048369166
0002c0 4e 05 17 3d eb 4b 26 3e 27 a1 ab be 08 59 85 be
       0.036870293 0.16239898 -0.33521387 -0.26044488
0002d0 67 93 79 3e 95 a0 23 be dc 95 fc 3d f4 18 a4 3e
       0.24372636 -0.15979226 0.12333271 0.32050288
0002e0 ca 84 42 bd 08 c4 c7 3d d3 4a 3c 3d 2d 43 30 3e
       -0.04748992 0.09754187 0.045969795 0.17213126
0002f0 a0 62 9a 3e 0b 88 33 3e 93 f6 ad be e4 15 7b bd
       0.3015337 0.17532365 -0.33977184 -0.061300173
000300 f1 17 61 be bc 39 e9 be 40 e1 c3 bc e4 a5 0d bf
       -0.21981789 -0.4555186 -0.023911119 -0.55331254
000310 7f e8 66 bc 88 da 7c be 4b f0 3f 3e 67 53 65 be
       -0.014093517 -0.24692738 0.18744008 -0.22395097
000320 75 9c b5 3d e6 c0 9d b9 23 ee 24 3e 07 64 41 be
       0.088677324 -0.00030089094 0.16106467 -0.18885814
000330 70 7f b6 bc 58 3e f9 3e cf 6b cb bd fb 9a 86 3b
       -0.022277564 0.48680377 -0.09932672 0.0041078306
000340 a3 60 5c 3e d8 6f d7 bd fa 07 a3 bd b1 3a 39 3e
       0.21521239 -0.105193794 -0.07960506 0.18088795
000350 dc 3f b5 bd a7 35 67 3e da 6f be 3d 4a 46 d2 bd
       -0.08850071 0.2257906 0.09298678 -0.10267313
000360 71 d6 89 3d 14 fc 07 3e 11 b4 97 be 93 1f 0b 3e
       0.067303546 0.13279754 -0.29629567 0.13586263
000370 33 12 08 3f 73 86 bc bd 60 ba 4f be 51 cc 14 be
       0.5315277 -0.09205332 -0.2028594 -0.14531066
000380 77 ee 57 bc f9 ed 98 3e d5 63 bf 3e 30 b8 08 3d
       -0.013179413 0.2986906 0.37380853 0.03337878
000390 45 9f c4 bd 09 f5 a8 bd 58 c3 35 be 4c 11 0f 3f
       -0.09600691 -0.08249862 -0.17750299 0.5588577
0003a0 25 8f 7d bd fb b3 be 3d d8 f5 de 3c 4a 7d 62 3d
       -0.06190409 0.09311672 0.027216837 0.055295266
0003b0 24 99 58 be a8 47 62 3c dd 64 e8 bd 1f 53 d6 3c
       -0.21152169 0.0138110295 -0.11347363 0.026162682
0003c0 3f bb fa 3c 42 6a 28 be 77 2a ce bd ee c8 1b be
       0.030606864 -0.16446784 -0.10066693 -0.15213367
0003d0 85 10 2d be 56 9e d9 bc 83 62 91 bd c5 7e 38 3c
       -0.16900833 -0.026564758 -0.07098868 0.011260693
0003e0 ee f0 10 be 8a de 27 bc 59 28 29 be 7c 57 05 3d
       -0.14154407 -0.010245929 -0.16519298 0.032554135
0003f0 dd 41 c6 bd 42 05 6e 3d 5c d3 4b bd e5 bc bb 3d
       -0.09680531 0.058110483 -0.049762115 0.09166888

bias f4 [50]
000000 1f 98 62 bd 56 c9 c7 bd ba 24 a9 bc d0 6e 01 3d
       -0.055320855 -0.09755199 -0.020647395 0.03159982
000010 51 a1 da bc 3f f6 13 bd 36 d4 22 be f4 59 1f be
       -0.02668825 -0.03612351 -0.15901265 -0.15561658
000020 31 ca 35 be 69 ad cd 3d fe 93 50 3d 68 7c f6 3d
       -0.17752911 0.10042841 0.050922386 0.12035447
000030 3f 21 c7 be 12 57 17 3c 98 de 20 3d 10 71 16 be
       -0.38892552 0.009237068 0.039274782 -0.14691567
000040 ab c0 f1 bd 2a 01 16 bd fd 9f 7b bd 07 7f 23 3c
       -0.118043266 -0.036622204 -0.061431874 0.009979016
000050 ae 92 a9 bd da 58 a8 bd 86 85 44 3e 9d f4 47 bc
       -0.0827993 -0.08220072 0.1919156 -0.012204316
000060 a2 43 95 3c e4 0a b0 3e 17 9b 32 3e fb d0 13 be
       0.018220726 0.3438331 0.17441975 -0.14435188
000070 d7 e2 38 bd a4 91 2b bd 2f a6 91 3d 02 53 5e bc
       -0.045138206 -0.04188694 0.07111775 -0.013569595
000080 a1 df d7 3d 30 c0 df 3d 41 1c 5e bd 25 1c c2 bb
       0.10540701 0.10925329 -0.054226164 -0.0059237652
000090 d8 a5 98 3c 05 80 9c bd c2 2e 32 bd c5 4b 28 3c
       0.018633768 -0.07641605 -0.043501623 0.010271971
0000a0 9e f0 6b be 74 45 dc 3b db 9c 5f 3d 83 97 3e 3d
       -0.23041007 0.0067221466 0.05459295 0.04653121
0000b0 19 41 ae 3d 18 4a 80 bd 8e 3f b5 bd f7 97 8e 3e
       0.0850851 -0.06264132 -0.08850013 0.27850315
0000c0 24 20 ec bd 27 b8 0f 3e
       -0.11529568 0.14035092

weight f4 [10, 50]
000000 8d a2 29 be 6b db 76 be 6e 41 fb 3d 9e a2 75 3e
       -0.16565914 -0.24107139 0.12268339 0.23987815
000010 bb eb be bd bd 2f 9b 3c 37 ee 47 be c2 d1 ea be
       -0.09322306 0.018943662 -0.19524466 -0.45863158
000020 0a 95 35 be f7 e9 f2 be d9 65 a8 3e e8 fa 97 be
       -0.17732635 -0.47444126 0.32890204 -0.29683614
000030 8f 75 08 bf 9a a2 8c be e9 b4 03 be e4 7a a7 3b
       -0.5330438 -0.27467805 -0.1286198 0.0051110853
000040 56 33 4e bd e3 59 20 3e 4e 24 93 3e e6 c0 d2 be
       -0.050341927 0.15659289 0.28738636 -0.41162795
000050 e6 8a 90 be bc d7 db bd f3 83 de be a9 b1 25 3d
       -0.2823097 -0.107345074 -0.43460044 0.040452633
000060 2f 17 a9 3e 00 8c c3 bd f0 b8 04 bd fe bb da 3d
       0.330255 -0.09548187 -0.032402933 0.10680388
000070 d6 64 e8 3d 26 7e ff 3e 11 85 0f 3e 82 a5 9a be
       0.11347358 0.4990093 0.14015605 -0.30204397
000080 96 1e c3 3e d2 7c a7 bd 73 83 3c 3e 33 17 5a be
       0.38109273 -0.081781045 0.18409519 -0.21297912
000090 e9 45 a4 3c d4 d3 e5 3b e3 b8 6b bc d4 c2 b0 3d
       0.020052867 0.0070137773 -0.014387342 0.086309105
0000a0 de e7 51 be c2 ba 24 3e 27 3b 4c 3e c9 8e 1e be
       -0.20498607 0.16086867 0.1994444 -0.15484156
0000b0 45 65 4f 3e bf 87 9c bd 45 67 a0 3c 10 8d aa be
       0.20253475 -0.07643079 0.019580493 -0.33310747
0000c0 23 04 94 3e 8e 66 bf 3d 9e f3 2b be b7 e2 db 3d
       0.28909406 0.09345733 -0.16792151 0.10736602
0000d0 3a bd 01 3e 12 ab 03 3f c9 5b b8 bd 16 d1 85 3d
       0.1266984 0.5143291 -0.09001882 0.065340206
0000e0 6e 12 06 be 03 b3 a2 be e4 8f 06 bf 81 75 42 bf
       -0.13092968 -0.317772 -0.5256331 -0.75960547
0000f0 24 ff 60 3e 32 df 44 bd 75 07 d9 bd 02 5a 89 be
       0.21972328 -0.048064418 -0.105971254 -0.26826483
000100 0a ef df bd d1 7d 79 3d 8d 6b d4 3c 66 c1 55 3e
       -0.10934265 0.060911004 0.02593019 0.20874557
000110 9c f4 a3 3e 6a 32 cd be 91 4f dd 3d 9b a9 3d 3d
       0.3202256 -0.40077525 0.10806192 0.046304327
000120 d2 97 98 be 35 93 f0 3c fe 1f 98 bd 88 29 a2 be
       -0.2980333 0.029367069 -0.07427977 -0.3167231
000130 62 75 58 be 3a ef a0 3e af bc ea 3d 3f cd 22 3f
       -0.21138528 0.31432515 0.1146177 0.6359443
000140 b8 1b 39 be 13 e5 41 be f7 3a a3 3e 86 b4 9e 3e
       -0.1807698 -0.18935041 0.31880924 0.30997103
000150 25 8a 07 3d c2 7d d7 be ed 82 ca be db fa 23 3e
       0.03309073 -0.42088133 -0.39553013 0.16013663
000160 15 1b 7e be d7 d0 1f 3e 54 b3 82 be 83 48 77 be
       -0.24815018 0.1560701 -0.25527442 -0.24148755
000170 1f 71 1b 3e 52 4f 18 3e 05 8d 9b be 78 52 3c 3d
       0.15179871 0.14874008 -0.30381027 0.045977086
000180 2e 92 cf bd aa 54 bb be bc a3 55 be 8b 7f b8 3e
       -0.101353034 -0.3658803 -0.20863241 0.36034808
000190 d8 00 86 3e eb 41 6c be 92 02 77 be 7a 8e 71 3d
       0.2617252 -0.2307202 -0.24122074 0.058973767
0001a0 5f 06 4a 3e 90 95 aa be 3e 1f 03 3f d0 16 06 be
       0.19728993 -0.33317232 0.51219547 -0.1309464
0001b0 12 e9 bf 3d ed 8d 0c 3f 52 01 88 be fa f6 32 bd
       0.093706265 0.5490406 -0.26563507 -0.043692566
0001c0 f9 47 c7 be e7 92 a0 3e 77 10 cf bd 99 56 4a bd
       -0.38922098 0.31362078 -0.10110562 -0.049398992
0001d0 16 fc 84 3e 07 a1 49 be af be 65 be 02 4c 14 3e
       0.25973576 -0.19690333 -0.22436021 0.1448212
0001e0 71 45 df 3d 84 c9 a3 bd 6a 11 0a be 5b 62 c5 3e
       0.10901917 -0.079974204 -0.13483205 0.38551602
0001f0 d1 15 57 bd 13 0d 71 3c ae 98 97 be ff a1 82 3e
       -0.05251104 0.01471259 -0.29608673 0.25514218
000200 22 1a 09 3b dc ec ef be 53 22 72 be 4c 96 1a be
       0.0020920117 -0.46860397 -0.23645906 -0.15096396
000210 d6 be c4 bd 44 c0 a1 3e 8d 76 94 be 81 c0 c5 bc
       -0.096067116 0.31592 -0.28996697 -0.024139645
000220 dd eb 87 be db cc 01 3d a8 93 23 bc f6 92 9b 3e
       -0.26547137 0.031689506 -0.009983934 0.3038556
000230 b8 10 8f 3e 09 b9 43 3d 73 e3 24 be 8c de ce 3d
       0.27942443 0.047783885 -0.1610239 0.10101041
000240 e8 2d 4c be 3a 2f 87 be d2 80 22 be 48 8f c9 3e
       -0.19939387 -0.26403219 -0.15869454 0.39367127
000250 c0 0a 24 be 57 b6 03 3e 0d a8 9e 3d c0 80 bf 3e
       -0.16019726 0.12862526 0.07746897 0.37402916
000260 fb 76 b2 3d 1a 7a e2 bd e6 a6 c8 3d 23 73 79 be
       0.087141 -0.11058445 0.09797458 -0.24360327
000270 10 94 63 3e a5 0b 6f 3d d4 82 1e 3e e1 cd c4 be
       0.2222445 0.058360714 0.15479594 -0.38438323
000280 23 f8 aa be 61 33 05 3d b5 07 ad 3d cf a6 36 3d
       -0.33392438 0.032519702 0.084487356 0.044592675
000290 5f 33 25 be 09 99 7a be cb ae bc be 45 0f f9 be
       -0.16132878 -0.24472441 -0.36852106 -0.48644462
0002a0 b8 7d 4c be 26 ae 08 be b3 65 20 bd a3 06 b0 be
       -0.19969833 -0.13347682 -0.039159488 -0.34380063
0002b0 30 bd a0 be 49 95 80 3c c9 c8 89 be 20 15 6b be
       -0.3139434 0.015696185 -0.26911 -0.22957277
0002c0 6b e6 45 3e 3f df 85 be 36 53 c9 bd 93 a9 a2 be
       0.19326179 -0.26146886 -0.09830324 -0.3177
0002d0 43 6b 1e 3e 4a 62 9d 3d a7 00 83 3e 14 aa 60 be
       0.15470605 0.07684763 0.25586435 -0.2193988
0002e0 86 bc e4 bd fb b9 b8 bd 93 52 7f 3e 41 15 35 bd
       -0.111687705 -0.09019848 0.24933843 -0.044209722
0002f0 00 80 9c 3d 05 f3 e7 be 20 e5 35 3e b6 31 20 bd
       0.076416016 -0.45302597 0.17763186 -0.039109908
000300 49 6b 93 bc 57 a1 6d be 12 16 99 3e 6f 8d 7b 3e
       -0.017995493 -0.23206078 0.2989965 0.24565671
000310 25 c1 82 be 87 23 d2 be 4b f3 64 3e ab ac bd be
       -0.25537983 -0.4104273 0.22358434 -0.37045798
000320 dd a4 6f bd 03 e6 27 3d e1 b0 92 be d4 8d 01 3e
       -0.058506835 0.04099084 -0.28650573 0.1265176
000330 4b 58 85 3e 4b fc a1 bd f8 f8 ac 3b 02 77 3d 3e
       0.26043925 -0.07909449 0.005278703 0.18502429
000340 38 85 19 be 39 14 14 be 5f 51 48 be 92 6a 13 3e
       -0.14992225 -0.1446084 -0.1956229 0.14396122
000350 3e 6a e3 3d 63 6a 2f 3d 26 7a 85 be 7b 29 6c 3d
       0.111042485 0.042826068 -0.26069754 0.057656746
000360 bc 39 02 bf 1d 51 32 be ed e3 2a 3d df c6 01 3d
       -0.50869346 -0.17413755 0.041721273 0.0316838
000370 d1 03 2a be b5 60 bc be 40 f9 96 be 00 98 27 be
       -0.16603018 -0.36792532 -0.29487038 -0.16366577
000380 36 f4 68 bd c3 52 28 3e 05 c9 df bd 31 02 2d 3e
       -0.056873523 0.16437821 -0.10927013 0.16895367
000390 9a 43 a2 3d ed 11 81 be ba 0a b5 be 36 82 8f bd
       0.0792305 -0.2520899 -0.35359746 -0.07007258
0003a0 17 4a bf 3c 90 ba 95 bd d8 63 d7 3d d1 41 60 3d
       0.023350758 -0.073109746 0.105170906 0.054750267
0003b0 5f 7b ff bd af 2a 8b be 49 d4 9d bd 92 53 b6 be
       -0.12474703 -0.27181002 -0.07706506 -0.35610634
0003c0 96 05 87 3e 0e cd e9 bd 47 15 62 3e ba b8 6a bc
       0.2637145 -0.11416064 0.22078429 -0.014326269
0003d0 8f 05 dd 3c 8f 17 4b 3e a8 a1 dc bd 9e dc 37 3d
       0.02698019 0.19833206 -0.10773021 0.04488813
0003e0 d4 fb 46 3e 10 cd bf 3c ab 51 38 bd e3 75 80 3e
       0.19432002 0.023413211 -0.04499976 0.2508994
0003f0 07 51 15 be ee 24 28 be 4b aa 46 be 64 bb 26 bd
       -0.1458169 -0.16420338 -0.19400899 -0.040706053

bias f4 [10]
000000 44 36 e9 3c dc 7c d4 3d 8e f5 12 be 46 e7 84 3d
       0.028468259 0.103753775 -0.14351484 0.064894244
000010 a5 e4 61 bd 4f 67 01 3e 74 6e 95 3c 28 29 2e 3d
       -0.055149693 0.12637065 0.018241145 0.04251972
000020 48 46 9c bb 12 d5 82 bd
       -0.0047691204 -0.06388296

weight f4 [2, 10]
000000 2d 15 77 3e 8c 0b 36 bf 4c 50 4a 3d a9 eb ca be
       0.24129172 -0.7111137 0.049392983 -0.3963292
000010 3d eb 4a bf 0d 68 20 3e 65 cd 4b bd 39 1c 09 3e
       -0.79265195 0.15664692 -0.049756426 0.13389672
000020 5f 66 1a 3e ca d0 3d 3e 2a 29 fa 3e 8d b7 d2 be
       0.15078114 0.18536678 0.4885953 -0.41155663
000030 97 e0 d6 be 93 dc f1 3d 57 50 94 3e d1 b1 75 be
       -0.41968223 0.11809649 0.28967544 -0.23993613
000040 e1 ba a5 3e a3 51 24 be 3b 0b c5 3e 93 8d 9b be
       0.3236914 -0.16046767 0.3848513 -0.3038145

bias f4 [2]
000000 e2 38 2e 3e 3b b5 48 be
       0.17013887 -0.19600384
