pretrained_models/nn_svm.pth (torch, 35887 bytes, 8 tensors)

weight f4 [50, 141]
00000000: 47e5 51bc 804f a1bd b564 2c3e 3026 053e
00000010: f976 fd3d b226 36be cd81 a8bd 82a2 43be
00000020: 028b 7d3e bbae 333e f325 a23d 037a 10bd
00000030: 2f7a 2e3d 81ba 46bd 0c3e a03d 6b41 15bd
00000040: afd5 f3bd 5ab0 eb3d b2a1 b3bd bc82 323e
00000050: 99b8 773d 0ecd 7fbd 2855 a83c ff80 21bd
00000060: 9982 6cbb 7c93 22bc 4a87 c13d 2b08 d53c
00000070: e591 ab3d 1454 973d 6a13 f13d e406 0a3e
00000080: 964a 4c3e d2bf 08be 7ef7 193e 149d 75bc
00000090: fa37 0a3d 4b21 28be 3e60 19be f565 823c
000000a0: 6982 5abd d643 2dbe c8e6 48bd 15dc 0f3e
000000b0: d154 303d 89b3 4abd 5dd4 0cbe c07a a1bd
000000c0: c57c 9ebc e32f 853c 6984 06be ca7f e43d
000000d0: 7e98 ccbd 20bc 0cbd 040d b83d cbcb dfbd
000000e0: 50cb 7a3c 6952 1a3e cbdd cf3b ab29 aabd
000000f0: 465e a1bd 461a 3a3e 381d 41be 2d31 963d
00000100: 68d0 583e 6a5d e03d 71e1 22be 534d 493d
00000110: 7243 b8bd 6bd1 903e 4039 b4bd 43fa 653c
00000120: 2d3b 8c3d 5986 433e f2fe 893d 0df5 bd3d
00000130: f70a 69bd 0530 843d 99ce 2ebc 7e03 5abd
00000140: 9d2a c2bd 9cc2 b93d 5578 21be abf2 083e
00000150: a5c7 acbd ff35 413e aba1 263d 9145 7cbc
00000160: 8013 703d 1a14 113e b381 583d 4a9b babc
00000170: f5e8 123e a468 65bd 59f5 b03d f761 3b3d
00000180: d4e0 c53a d605 bcbd de80 c03d 5a30 fbbd
00000190: e523 2d3d 2172 b2bd 979b b93d f27f febd
000001a0: 7e2c 2b3e 092f 50be 066a aa3c 76b2 17bd
000001b0: 53a1 053e 48e8 393d 0cfa 5f39 e03c 85be
000001c0: f7d3 f73d 578a b23d 878c 3a3e aa60 3c3d
000001d0: 9c1a fcbd ef1f 423e f02c 293c f43b 733d
000001e0: 994c a73d f714 7e3d a577 1dbe 32eb 023d
000001f0: 7249 ff3d b08e 7e3e 1ab6 2f3d cbc6 e3bd
00000200: 56f5 013e b7d3 88be 72eb 003c ce08 a53d
00000210: 8241 0c3e 0c13 a2bd 9899 16be 9dbc 213b
00000220: 43e8 993d fd06 ac3c 6dcf d8bd a30a 263e
00000230: 17f2 c53b e624 b43c 40e5 9f3d 4021 a5bd
00000240: 2ed2 023d 7af7 0d3e 72d3 ba3d cd4c 063e
00000250: 1d25 35be 4955 12be d80e 293e 9ee4 b1bd
00000260: 5c70 443e e970 4c3d 31e5 473e f533 80be
00000270: c17b 01bd 0416 45be dbdb 5c3d fa72 47be
00000280: 6ae2 cb3c 90dd aa3d c02e 063e ab4c 6d3c
00000290: 5748 fa3c 5d52 b53d 14c4 e1bc 4882 0b3d
000002a0: 2164 383e c7ae 87be 8ad8 17be e15d cd3c
000002b0: f406 2cbb 119d ccbd 7828 cabd 27d9 a43d
000002c0: 4f78 813e 9ee8 a7bd dc7b 3a3e 43f9 0f3e
000002d0: 3ff0 a9bc 47c4 213d e4cc 78be b924 a9bd
000002e0: 6ce2 0fbd 47b4 5f3d 918b ec3d 48c2 12be
000002f0: 7be8 6e3d 5732 99bd a263 c23d fd6b df3d
00000300: 9d99 83bd e0c5 4a3c 1b07 afbd ce15 65bd
00000310: 2fe4 b43d 4dc5 333e fe1e 30be 194c 8f3e
00000320: 5256 20be 4619 da3d 7d86 e93b 4d02 adbc
00000330: b8d1 553d 2ba4 eabd 6dde cdbc 6cec 743e
00000340: 40ad b63d ea0d fb3c dce4 ec3c 0a03 343e
00000350: 6ede 183e 6387 3cbe 5c8f 08be 48bd 21bc
00000360: 26e9 913d 636c a93b 0556 303d 24e6 573c
00000370: 72cb 13be 0d30 31bd a0a9 ba3d 32f0 d0bc
00000380: 7ac1 bdbd e8e6 153e 4f1c ff3d 570b acbc
00000390: c055 953d 8ba5 3b3d 2388 d93d cdfc 273e
000003a0: 8b54 913d 306e f83c 6d8d 863d cd22 29be
000003b0: 761d a3bc 51b2 4cbe 5279 5c3e 5d5e a93c
000003c0: 8637 bfbd 79be e23d 3f7c 9fba c68b d83c
000003d0: e222 123d 9621 16bc 4784 ed3d 9f8d 1a3e
000003e0: 27d3 6cbd 8d20 1bbd fc67 363d 9899 0c3e
000003f0: bad0 bb3d c896 843b 1df7 31be 4930 a3bd
-0.012811012 -0.078764915 0.16835292 0.13002849 0.12376208 -0.17788199 -0.082278825 -0.1910496
0.24760059 0.17547123 0.079173945 -0.03527261 0.042596992 -0.048517708 0.078243345 -0.03643934
-0.11905991 0.11508246 -0.08771075 0.17432684 0.06047878 -0.062451415 0.020548418 -0.03942966
-0.0036088584 -0.009922858 0.094496325 0.026004871 0.083774365 0.073890835 0.11771281 0.13479191
0.19950327 -0.13354424 0.15035817 -0.014991064 0.03374479 -0.1641895 -0.1497812 0.015917758
-0.053347025 -0.16920409 -0.049048215 0.14048798 0.043049637 -0.049487624 -0.13752885 -0.07884741
-0.019346604 0.016258186 -0.13136448 0.11157186 -0.09990023 -0.034359097 0.089868575 -0.10927542
0.015307263 0.150705 0.0063435785 -0.08308729 -0.07879309 0.18174085 -0.18858802 0.07333598
0.2117325 0.10955317 -0.15906312 0.049146008 -0.08997239 0.28284773 -0.08799982 0.014036718
0.068472244 0.19094218 0.0673808 0.09275255 -0.056895223 0.064544715 -0.010669374 -0.053225987
-0.09480784 0.09070322 -0.1576856 0.1337382 -0.08436517 0.18868254 0.040681522 -0.015397445
0.058612347 0.14167824 0.052858066 -0.022779126 0.14346679 -0.056007996 0.08640546 0.045747723
0.0015096911 -0.091808006 0.093995795 -0.12265082 0.04227056 -0.087131746 0.090628795 -0.124267474
0.16716191 -0.20330442 0.020802509 -0.037035428 0.13049822 0.045387536 0.00021360087 -0.26023006
0.12100976 0.087177925 0.1821767 0.045990624 -0.12309763 0.18957494 0.010325655 0.059383348
0.08168907 0.062031712 -0.15377672 0.03196258 0.124651805 0.24859118 0.042898275 -0.11121901
0.12691244 -0.26724026 0.007868635 0.0805832 0.13696864 -0.07913789 -0.14707029 0.0024679073
0.075150035 0.020999426 -0.10586438 0.16214995 0.0060408222 0.02199025 0.07807398 -0.080629826
0.031938724 0.13863936 0.09122361 0.13115235 -0.17689939 -0.14290346 0.16509569 -0.086861834
0.19183487 0.049912367 0.19521023 -0.2503964 -0.03161216 -0.1924668 0.053920608 -0.19477454
0.024888236 0.08343041 0.13103771 0.014483611 0.030552072 0.088536 -0.027559318 0.034059793
0.18006946 -0.26500532 -0.14828697 0.025069179 -0.0026249262 -0.099908955 -0.09871 0.08049231
0.252871 -0.08198665 0.18211311 0.1405993 -0.020744441 0.039493825 -0.2429691 -0.082589574
-0.035128042 0.054615285 0.11550058 -0.14331925 0.05832718 -0.07480305 0.0949166 0.10909269
-0.06425784 0.012376279 -0.08546277 -0.055928998 0.08832585 0.17555733 -0.17199323 0.27987745
-0.15657929 0.10649352 0.007126628 -0.021119261 0.052201957 -0.11457094 -0.025130475 0.23918313
0.089197636 0.030646283 0.028917722 0.17579284 0.149286 -0.18411021 -0.13335937 -0.009871788
0.07124548 0.0051703914 0.043050785 0.013177428 -0.14433077 -0.043258715 0.09114385 -0.025505159
-0.09265418 0.14638865 0.12456571 -0.021001501 0.07291746 0.04581217 0.10621669 0.1640503
0.070962034 0.030325979 0.065699436 -0.16517182 -0.019911509 -0.19989897 0.21530655 0.020674879
-0.09336762 0.11071486 -0.0012167766 0.026433837 0.035677798 -0.009163281 0.115974955 0.15093087
-0.057818558 -0.03787284 0.04453276 0.13730466 0.09170671 0.004046295 -0.17379422 -0.07968194

bias f4 [50]
00000000: f288 ec3d d629 5f3d 589d 3e3d dbd1 2d3d
00000010: 732e 54bd 6827 aabb c099 ed3b 6587 b3ba
00000020: c958 f83d 030e 9c3c 78cb 7e3d 92fe c63d
00000030: f5aa 933d 0209 3d3e 539a 603e e6cf 153e
00000040: 9c57 c13b be3c d1bd eb58 273c f230 c13d
00000050: c32a 63bc 05e7 4f3b 3908 a1bd 64de 773d
00000060: 10e9 ee3c 9c55 313e 9089 5dbb 74a7 0c3d
00000070: 4a7e 513d 316f eabd d26f 913d 2613 61ba
00000080: 3dab 083e aeb9 37bd 9eb5 c93b d388 01bc
00000090: 7828 ca3d ab31 d23c b752 a13c 0021 96bd
000000a0: af9e bb3d 55fd fd3d 87fc 09be 8f5d 6e3d
000000b0: 3f28 49bc 68ba 093e 7590 103b 702b 133e
000000c0: 224c 0ebe 7ae8 d83d
0.11549558 0.054483257 0.046536773 0.042436462 -0.05180211 -0.005192686 0.0072509944 -0.0013696967
0.121263094 0.01904965 0.06220576 0.09716524 0.07210342 0.18460467 0.2193387 0.14630088
0.0059003364 -0.10216664 0.010214071 0.09433164 -0.013865176 0.0031723392 -0.078628965 0.060514823
0.029163867 0.17317814 -0.0033803917 0.034339383 0.05114583 -0.11446989 0.07101406 -0.0008585922
0.13346572 -0.044854812 0.0061556837 -0.007906157 0.09871 0.02565845 0.019692762 -0.07330513
0.09161126 0.12401835 -0.13475238 0.058194693 -0.012277662 0.13450015 0.002205876 0.14372039
-0.1389623 0.105912164

weight f4 [50]
00000000: 1ab4 5b3f 0854 3f3f eca1 6a3f 1359 483f
00000010: b3ca 5a3f 67af 653f c7e2 633f 26f1 493f
00000020: e5c9 573f 18a0 3d3f 6494 723f d9f2 6c3f
00000030: 8730 753f 3e9f 593f 70f7 5e3f 976c 4a3f
00000040: 1b65 523f d42a 5a3f d8ad 403f bd71 673f
00000050: 0cdf 4e3f 2c64 5a3f 161b 2f3f 0308 703f
00000060: 965a 5e3f b264 5c3f c15e 573f fc13 623f
00000070: cad6 523f 2af1 583f 47bf 673f 6808 5f3f
00000080: 979f 633f cbe7 5a3f 97e0 713f b2cd 5f3f
00000090: db97 4e3f cb8e 503f c0fb 553f 5c87 593f
000000a0: 9fb9 613f 3b09 5b3f f4f3 623f 365c 5d3f
000000b0: 0580 603f dbeb 4f3f e90d 573f 1575 533f
000000c0: efa2 593f 6533 683f
0.8582169 0.74737597 0.91653323 0.78260916 0.85465544 0.8972077 0.8901791 0.7888359
0.8429244 0.7407241 0.94757676 0.92558056 0.9577717 0.8500861 0.8709631 0.79071945
0.82185525 0.852216 0.75265265 0.90407926 0.8080909 0.853091 0.68400705 0.93762225
0.86856973 0.8609115 0.8412896 0.88311744 0.8235899 0.8474299 0.9052624 0.871222
0.8891539 0.8550994 0.9448332 0.8742324 0.80700463 0.81467885 0.83587265 0.84972167
0.8817386 0.8556096 0.8865349 0.8646883 0.8769534 0.8121926 0.840056 0.8260053
0.8501424 0.9070342

bias f4 [50]
00000000: 408e 19bc 4946 d3bb 25f7 7b3c 4f81 8cb7
00000010: d7cf bf3a a335 103c 63fa 633b 7b25 c83b
00000020: 9436 dcba 5037 f1ba 09a9 16bc b7bd 943b
00000030: 3f4c 933b 887d 0b3b 1633 a2bb 4dd8 9ebc
00000040: aed5 32bc 2f9c 4138 faa8 333c 875d 263c
00000050: a257 ddb9 41b3 1f3b a21d afb9 1031 103b
00000060: 2b5f d83a 27ec 05bc 30aa 8abb 519f 7a3b
00000070: 718d a03b e2cb 1cbc b4df dbba 17fb 303b
00000080: 7ccf bcba 6645 99bb 8a07 77bc 587c 7fba
00000090: a0d1 ac3b 32d1 363b e953 bcbc e9cf 8abb
000000a0: d29c 033c f106 033c 58cd acbc 6117 01bc
000000b0: 2749 6a3a 2784 77bc ac1c 18bc 853b d6bb
000000c0: bcb7 18bb 625d d53b
-0.009372294 -0.0064475876 0.015378748 -1.6749515e-05 0.0014634085 0.0088018505 0.0034786693 0.0061079836
-0.0016800934 -0.0018403325 -0.009195575 0.0045392173 0.004495173 0.002128454 -0.0049499376 -0.01939025
-0.010915203 4.6160243e-05 0.01096558 0.010154135 -0.00042217696 0.0024368318 -0.0003340068 0.00220019
0.0016507854 -0.008173979 -0.0042317137 0.0038241933 0.0048996736 -0.009570094 -0.0016775043 0.002700513
-0.0014405097 -0.0046774624 -0.015077481 -0.00097460067 0.0052740127 0.0027895686 -0.02298923 -0.0042362106
0.008032994 0.00799726 -0.02109401 -0.007879109 0.0008937292 -0.015107191 -0.00928418 -0.006537857
-0.0023302874 0.0065113762

running_mean f4 [50]
00000000: e43b cd41 8b4f 2d3f d8de 4f40 2373 e93b
00000010: b6ac b532 574f 7e3f 5123 c93f fc1f aa3f
00000020: 19c4 c93f 4fd4 d83f 29e0 0341 d743 fb41
00000030: 8aff 8941 11e2 8341 170c b641 2644 3140
00000040: 9c64 5640 fda3 1333 962a c93a 04dd 6240
00000050: ad2c 9333 403f a741 2c71 4d3e 4150 3641
00000060: 5903 f040 fd56 8340 c18e 7e3f 025e da40
00000070: 5ddd 1b41 2fa9 a541 92f6 8341 a74d 2141
00000080: 2d56 1a40 b197 7231 1e99 df41 b924 6641
00000090: fe60 1540 3e5b 463f 3069 0a41 96b1 b933
000000a0: b5a7 c840 703f 9141 9a76 1842 101f c640
000000b0: 9bd3 b33f f313 8741 3060 3741 66f6 9241
000000c0: 9883 d933 9086 8d41
25.654243 0.676995 3.2479763 0.007124321 2.1149713e-08 0.99339813 1.5713903 1.3291011
1.5762969 1.6939791 8.242227 31.408125 17.249775 16.485384 22.755903 2.7697845
3.3498907 3.437525e-08 0.0015347775 3.5447397 6.8533474e-08 20.905884 0.20062703 11.394593
7.5004086 4.1043687 0.99436575 6.8239756 9.741544 20.70761 16.495396 10.081458
2.4115098 3.5301861e-09 27.949764 14.3839655 2.334045 0.77482975 8.650681 8.6470365e-08
6.270472 18.155975 38.11582 6.191292 1.4048952 16.88474 11.460983 18.370312
1.0128787e-07 17.690704

running_var f4 [50]
00000000: 95c5 d242 96f3 8140 fa18 3342 e0d0 ef3b
00000010: c46a 9f32 3599 cf40 7a51 3d41 8b84 1141
00000020: 58e4 3241 274e 3e41 8da3 ec41 626a 2c43
00000030: eee5 2a42 f917 d342 ba04 8c42 ed45 bc41
00000040: b841 d441 1f52 3a33 9059 cf3a 4f0b 2642
00000050: 5e26 e933 c980 9342 c386 5b3f 352d 7f42
00000060: 465c c241 47c6 1842 9aa8 b740 f82e 3542
00000070: c645 1d42 17e9 4342 05b4 be42 ae6c 4e42
00000080: 52a0 d241 b539 0e30 e4ef e742 fbbd 7642
00000090: 0af2 3941 3880 7b40 c349 1f42 8ca8 8532
000000a0: 63bf ad41 ea42 d142 3db7 5f43 f25b 2942
000000b0: 0e15 3441 9647 ac42 6031 c341 063e f442
000000c0: 3459 bf32 354e 6142
105.3859 4.0609846 44.77439 0.007318601 1.8558588e-08 6.487452 11.832392 9.094859
11.180748 11.89408 29.579859 172.41556 42.72454 105.54682 70.00923 23.534143
26.53209 4.338119e-08 0.0015819538 41.511044 1.0856887e-07 73.75153 0.85752505 63.794147
24.295055 38.19363 5.7393312 45.295868 39.31814 48.977627 95.3516 51.606133
26.328281 5.1741306e-10 115.96854 61.685528 11.621592 3.9297009 39.822033 1.5559884e-08
21.71845 104.63069 223.71577 42.33979 11.25514 86.13982 24.399109 122.12114
2.2275891e-08 56.326374

weight f4 [10, 50]
00000000: ee5a a23d 0c70 573d 3a4a cc3d dd5a 973b
00000010: dd9a c3bc e1cb 22bd 9bd2 cf3c 3c5d 51bc
00000020: 6013 ae3c a0ca 193c ca7b 99bc c710 063e
00000030: 68cc 2b3d 5ada 343c a217 42be 2c24 bfbd
00000040: cc51 8ebd 7890 2f3c 6ced d6bc 5055 b73c
00000050: cb0e 07bc 6bc9 b43c 600f 0a3d 3039 213e
00000060: 1871 05bb 723d b9bd 2766 a8bd 4762 2b3d
00000070: 764c a33d bda4 833b 2095 d3ba 1806 853c
00000080: dc76 5d3c 055f e53c dd56 8cbd 7ce0 c1bd
00000090: cfe9 0b3d b016 c03d b225 56bd 0f82 ec3c
000000a0: 22e9 e03d 81c2 33bd 4ede 1bbe 6039 723c
000000b0: 1b5d 73bb 291d 003e b0f8 cd3c 5092 bebd
000000c0: 2d75 883c fa3f 663d 992e 8c3c 78c7 b53c
000000d0: da4d 7e3c 967a a7bb 7d2c df3a 1ae0 bbbc
000000e0: 54a2 c8bc 2cde 543c c057 bfbc 0cbf 503c
000000f0: 2c61 35bd c86f 0abe e790 a0bd 237a 69bc
00000100: 4943 26be 0f52 2d3b ea99 b23d 8fa2 133c
00000110: d01e 29bb 6a4b 25bd 66f4 b3ba 0ef3 8ebd
00000120: bc25 f5bc 28d5 2abe 2720 353d 72b5 88bd
00000130: 1187 9a3c 5736 0c3d b036 acbc 7efb a2bd
00000140: 7185 38bc 9ddf 0e3c a3b6 b5bb 43ef fdbb
00000150: 6bce 353e 84ab 02be 2176 1e3d 4905 833d
00000160: dacc d03d 4b7b 523c 152d c63c 91ab a2bd
00000170: 066d 163e 1adb 673d c4aa f2bc 20e4 0b3e
00000180: 734c d33d 08f6 b73c 7148 febc 0b75 bf3c
00000190: 65e7 debd 8ac6 bcbc 2e37 073e 2728 ad3b
000001a0: 159a a23b 6a1b 7d3d 9f35 883b 58d6 b33c
000001b0: fb87 2cbc 9a0d 593c d6e5 153c 0646 cf3c
000001c0: 41cb 28be f6f5 8fbc 8e20 103e 3f02 ab3d
000001d0: 9c99 85bd 227c 2b3b 281b 053d cb1d 883d
000001e0: bf2e 25bc 5288 ed3b 544b 50bc c262 9d3d
000001f0: 0c51 00be 33c3 9dbd b33a 4bbc 9c63 313d
00000200: b73f 31bc a6e3 e63d ec33 30bc b1c0 1e3d
00000210: 4258 ebbd ba24 16bc c205 1dbe 16a3 febd
00000220: bf4f 043d b75c 79bd 85cf a23d 67d2 80bc
00000230: ddad ca3c fb56 f2bd 383e a63d da9f 003d
00000240: 443c d9bc faa6 0d3d 4791 f6bd e3a0 8f3d
00000250: 6ba1 5ebc 44ff b53d 5c00 cd3c 06f8 1abd
00000260: 6f6c 01bc 278d 8dba 6740 25bd fae6 d43b
00000270: 17d6 15bd 6bc7 9dbb 4292 8ebc 815c c43c
00000280: 62f9 8fbd a870 383e 9c57 2bbe 225c 4bbc
00000290: ccc1 67bc c3e5 213c d459 8dbc cece 703d
000002a0: 5ea7 a23b 8df8 543d 9521 54bd 2a8d 4b3d
000002b0: c123 07bd 6d72 01be 44c9 38bc 2f2f 503d
000002c0: ae18 2e3d 2182 ecbd 8bfd 9ebd d9ae 033e
000002d0: 240c 96bc 2d10 303d 3ea3 1c3d 951d 173c
000002e0: 8c70 b0bd 710f c9ba 68ec 543d 65bb 76bc
000002f0: 4ada e93d d0c7 1d3d 2124 2fbd 404c c3bd
00000300: b92a 7d3d fb99 4cbd 7efb b9bc 8638 dbbd
00000310: 3b1f 8c3d edc5 533d 280c fcbc 2653 68bd
00000320: 6232 cd3d d8aa 203d 9ea5 233d 491a 903b
00000330: 07d7 36bc d6c0 eb3c 518e 293d 1428 dabb
00000340: f9c1 1cbc fb08 b63c ed2b 9fbd 29f1 9f3d
00000350: 165d c13c af1e dbbb 4a94 d33d d2b1 fe3c
00000360: d05b 263d 195e 43bc 1496 333d e304 90bd
00000370: 12f5 99bc f5d0 e43c 9912 b03b 0f0c 19bc
00000380: 3892 a93c 68dc 9abd 3b12 3a3c d29b 49bd
00000390: da73 5a3d c40b 4abd 939c aabc c22b 7abc
000003a0: 3ea7 a9bd 5d0c 8e3b d4c6 00be 2005 b0bd
000003b0: 2976 afbc 3859 15bd a968 083e afef aabc
000003c0: e4a8 603d 9dc4 28bc 3f3d e9bd 954c a13d
000003d0: c2c7 3b3d 0ac7 9bbc b2a4 ac3d ef54 ee3c
000003e0: 9aed 8abb e624 06bd 9fcc 98bc 7407 98bd
000003f0: 9ca2 06be 800c 203c 004e 863a 2695 86bd
0.079275 0.05259709 0.09975095 0.004618986 -0.023877556 -0.039745215 0.02536898 -0.012778576
0.021249473 0.0093866885 -0.018735785 0.13092338 0.041942984 0.011038387 -0.18954328 -0.09333071
-0.06949195 0.010715596 -0.026236258 0.022379547 -0.008243273 0.0220687 0.03370607 0.15744472
-0.0020361599 -0.09044923 -0.08222609 0.04184177 0.07973568 0.004017441 -0.0016142465 0.016238257
0.013517108 0.02799941 -0.06852505 -0.09466645 0.034158524 0.09379327 -0.052282043 0.02887061
0.109819666 -0.043886665 -0.15221521 0.014784187 -0.0037134353 0.12511124 0.025142998 -0.09305251
0.016657436 0.056213357 0.017112063 0.02218984 0.015521491 -0.005111049 0.0017026808 -0.022934008
-0.024491467 0.012992423 -0.023357272 0.012740862 -0.044282123 -0.13519204 -0.07840138 -0.014250311
-0.16236605 0.0026446616 0.08720763 0.009010925 -0.002580572 -0.040355124 -0.0013729453 -0.06979953
-0.02992522 -0.16682875 0.044220116 -0.06675233 0.018863233 0.03423151 -0.02102217 -0.079581246
-0.011262284 0.008720306 -0.0055454536 -0.0077494695 0.17754523 -0.1276074 0.038686875 0.063974924
0.10195322 0.012846778 0.024191419 -0.0794288 0.14690027 0.056605436 -0.029622443 0.13661242
0.10317316 0.022456184 -0.031040402 0.02337124 -0.10883979 -0.02304389 0.13204643 0.0052843275
0.0049622157 0.061793722 0.0041567828 0.021952793 -0.010530467 0.013247872 0.009149035 0.025301944
-0.16483785 -0.017573338 0.14074919 0.08350038 -0.06523439 0.0026166518 0.0324966 0.066463076
-0.010081946 0.0072489167 -0.012713272 0.07684852 -0.12530917 -0.07703247 -0.012404132 0.043307886
-0.010818413 0.11273889 -0.010754567 0.038757984 -0.11491443 -0.00916403 -0.15334228 -0.1243345
0.032302614 -0.060879435 0.079497375 -0.015725328 0.024741108 -0.118329965 0.08117336 0.031402446
-0.026517995 0.03458307 -0.12039428 0.070131086 -0.01358829 0.08886579 0.025024585 -0.03783419
-0.007899388 -0.0010799513 -0.040344622 0.006497261 -0.036581125 -0.0048150322 -0.017403726 0.02396989
-0.07029988 0.18011725 -0.16732639 -0.012412103 -0.014145326 0.00988144 -0.017254747 0.058790974
0.0049637994 0.05199485 -0.05178984 0.04969517 -0.032993082 -0.12641306 -0.011278454 0.050826248
0.042504005 -0.115482576 -0.07763203 0.12859668 -0.018316336 0.042984176 0.038241617 0.0092233615
-0.086152166 -0.0015339685 0.051983267 -0.015059327 0.114185885 0.038520634 -0.042759065 -0.09536028
0.06180832 -0.049951535 -0.022702929 -0.1070414 0.06841894 0.05170243 -0.030767515 -0.05671992
0.100193754 0.03922543 0.039952867 0.0043976647 -0.011159665 0.028778475 0.04139549 -0.0066576097
-0.009567731 0.02222108 -0.0777205 0.078096695 0.023603957 -0.0066870074 0.10331018 0.03109065
0.040614903 -0.01192429 0.043844298 -0.07032182 -0.018793616 0.02793167 0.0053733108 -0.009341254
0.020699605 -0.075615704 0.011356886 -0.049220867 0.05333314 -0.049327627 -0.020826614 -0.015269222
-0.08283852 0.00433497 -0.12575847 -0.085947275 -0.021418648 -0.03646204 0.13321175 -0.020866243
0.054848567 -0.0103007825 -0.11388635 0.07875935 0.0458448 -0.019015808 0.08429851 0.029093234
-0.00423975 -0.032750033 -0.018652258 -0.074232966 -0.13147968 0.009768605 0.0010246634 -0.065714166

bias f4 [10]
00000000: b107 36bc 5630 4c3c edfe 85ba c8f2 923b
00000010: 7383 48ba d412 5e3b 9a94 16bc 3ae0 d03b
00000020: dbc7 323a 107b ddba
-0.011110232 0.012462696 -0.0010223069 0.004484508 -0.0007648982 0.0033885734 -0.009190703 0.006374386
0.0006819942 -0.0016897637
